models/simple_cnn_model_2023-12-10 22:35:02.283354.pth (torch, 130928 bytes, 8 tensors)

conv1.weight f4 [16, 3, 3, 3]
00000000: 5270 843d 018c 6b3b e832 2c3e 6603 08be
00000010: d48d 8f3c f7c5 f1bd cef4 813d 02ec 6dbd
00000020: 8fdd 923d ad45 9ebd be8e 003e 72e8 07be
00000030: c971 19be e83b 18be c237 1e3e 30db 0a3d
00000040: fe2e 213e 6994 30be 8d47 5ebe 7d34 31be
00000050: e1b0 02be a29c 633d 350d 503d 76b4 223e
00000060: a50e f4bd 90ec 0fbe df74 d33d c3bc 4dbd
00000070: f2cb 113e fcb1 97bc 3828 0f3e cd40 febd
00000080: f44f 8ebd acc1 ba3d 0a7e 8b3d 0853 bfbc
00000090: fcb0 0e3e e583 173e 600c f4bd f5b9 afbd
000000a0: 968a 293e f4e7 9cbd ecca 34bd fa87 4cbe
000000b0: 07b0 10be 4681 983d 779c 33bb 93dc ebbd
000000c0: 9f17 fa3c c2d6 ecbd 60de 0fbe d315 98bd
000000d0: feef 17be beec d9bd 5982 653e 178f 923d
000000e0: 869e c23d 36f9 16be 8e73 b6bd a533 dcbc
000000f0: 1c76 7d3d 9568 06be 1e0a 3fbd c5cd b0bd
00000100: ea3d ec3c fb28 24bd e8a3 83ba 27f4 03be
00000110: 641a e3bd b160 f0bd af7d bebd e371 1cbe
00000120: 9e5e 443e 3a73 f0bb f617 4c3e d885 b13d
00000130: 9ea4 06be 90ac 2a3e 3be9 ebbc a5f3 26bd
00000140: cb62 03be 037e 47be 7483 763d a518 a3bc
00000150: 79ab 683d f56e 27be c83a 283e 0062 29be
00000160: 9d24 24bd 4bf7 3f3d f4a7 983d 64b6 123e
00000170: 0cc8 4b3e 7548 3cbe 650e b73c e0bf 87bd
00000180: 81ee 5dbd 7bc3 30be 8513 293e c98a 21be
00000190: 3371 cc3d a1ef b93d 9fe4 0d3d d0c7 fbbd
000001a0: e70d 473e b9f6 393c 87b0 313b 7e73 30be
000001b0: 97c5 9c3d 49ba 9dbc 2c79 8bbd 29d1 253e
000001c0: d7c0 5b3d 5010 b4bd 3572 dcbd 2db8 2bbc
000001d0: 78c4 f53d fe53 95bd 1cc0 f6bd 78ad 66bd
000001e0: 06b4 2abe 1a4c 733d 4cde 203e 0542 54be
000001f0: c0e5 cc3c 1066 cb3d d5b3 953c 92dd 90bd
00000200: c3a7 e83d 938b ac3d 0c65 8e3d 7dc5 bdbc
00000210: 32d4 94bd 3f47 d33b 74e6 fabc 3007 0abd
00000220: 96f5 173e f96e 4b3e 5bbf 2cbc 8b73 c2bc
00000230: a354 0b3d 96ae 37bc 4bbc 8e3d aee0 a73d
00000240: 18f3 51be 0427 cabd f6b5 303e b9b7 233d
00000250: e62c 31bd 4b40 09be f0ea 19be 15cb 4fbe
00000260: 25e4 aabd 35f0 663d 7b1d f63d 3d07 ea3d
00000270: f1c9 4bbe ec71 0fbe e25b a3bc 6334 203e
00000280: 884c 483c d02c 46bd 006c a73d 7085 68bd
00000290: 0455 cbbd 624e 273e 27fa 80bd 44bc 16bc
000002a0: e398 2abe f54e 1e3e 3024 323e e159 233d
000002b0: 9db2 2fbe cb3e 5dbe 83ea 11be b816 213e
000002c0: 6b7b e73d 7879 3d3e 8e4c ff3d 778b 9a3d
000002d0: ece8 8abc 2ac5 17be d6c1 15be 5d42 25be
000002e0: 71d9 c73d ae75 8dbd 1efa 74bc 1209 b1bd
000002f0: 280b 01bc 7779 edbd fc5e d2bd e3f8 ae3d
00000300: beaa 49bd 6364 0a3e d7bd 2bbd cd21 0dbe
00000310: 68df f4bb f66a 93bd a97c 88bd 4035 33be
00000320: 9fe6 023e 8daf 12be 3d9c cb3d 5af9 d73d
00000330: f8c2 043e 955b 0bbe d17f 223e 3e9f bebd
00000340: 49f3 ae3d 2737 4e3e c04d 0bbd 98b2 bc3b
00000350: 799d d1bc 2790 2bbe 3fd1 e33d f63e 2ebe
00000360: b7e9 183e 5421 353e 884b 5c3e 9614 86bc
00000370: dba3 01be 44d3 9d3d eac2 0b3e 4436 22be
00000380: 7f04 09bc f814 ecbd 833c b8bc 9d9c d1bd
00000390: a966 a1bd 7721 8fbd cc41 41be 6baa 2b3e
000003a0: 297c 293e 2363 d8bc c20e 53bb 174f 72bd
000003b0: 854a 1fbe 0a9f 2fbe b569 ae3d db2b b9bd
000003c0: 5ca6 d1bd 58ae d33b 0f13 21bd 7679 5dbd
000003d0: 907f 7b3c 31ea debc 16db 60bd f80b 9fbd
000003e0: 2795 12be 7ea0 313e 5408 83bd 13c0 6c3d
000003f0: 908e 52bd 829d 0d3d 645d 4e3e c47f db3d
0.06466736 0.0035941603 0.16816294 -0.13282546 0.017523684 -0.11805337 0.06345521 -0.058086403
0.07171165 -0.07728133 0.12554452 -0.13272265 -0.14984812 -0.14866602 0.15450957 0.03390044
0.15740582 -0.17244114 -0.21706982 -0.17305179 -0.12762786 0.0555693 0.050793845 0.15889153
-0.11916856 -0.14055085 0.10325026 -0.050228845 0.14237955 -0.018517487 0.13980186 -0.124147035
-0.069488436 0.09118971 0.068111494 -0.023355022 0.13934702 0.14796408 -0.11916423 -0.0858039
0.16556773 -0.07661429 -0.044138834 -0.19973746 -0.14129649 0.07446532 -0.0027406493 -0.115166806
0.030528842 -0.11564399 -0.14049673 -0.07426038 -0.14837644 -0.10640858 0.22413005 0.071561985
0.09502892 -0.14743504 -0.08908759 -0.026880095 0.061880216 -0.13125832 -0.046640508 -0.086329974
0.028838117 -0.040078145 -0.0010043355 -0.12886105 -0.11089018 -0.117371924 -0.09301316 -0.1527782
0.19176719 -0.007337955 0.19931015 0.08668107 -0.13148734 0.1666739 -0.028797736 -0.0407597
-0.12830655 -0.19481663 0.060183957 -0.019909212 0.056804154 -0.1635092 0.16428673 -0.1654129
-0.04007398 0.046866696 0.074539095 0.14327389 0.1990053 -0.18387015 0.022345731 -0.06628394
-0.054182533 -0.1726207 0.16511352 -0.15775599 0.099825285 0.09078909 0.03464186 -0.122939706
0.19438897 0.011350327 0.0027113275 -0.17231557 0.07654875 -0.019253867 -0.06810221 0.1619307
0.053650703 -0.08792174 -0.10763971 -0.010480923 0.12000364 -0.07291411 -0.12048361 -0.056317776
-0.16670236 0.059398748 0.157098 -0.2072831 0.025011897 0.09931576 0.018274227 -0.07073511
0.11360123 0.08425059 0.06952867 -0.023165459 -0.072670355 0.006447702 -0.030627467 -0.03369826
0.14839777 0.19866551 -0.01054367 -0.023736736 0.034016263 -0.011211058 0.06969508 0.08197151
-0.20502889 -0.09870723 0.17256913 0.039970133 -0.04325571 -0.13403432 -0.15031028 -0.20292313
-0.08344296 0.056381423 0.12017342 0.11427162 -0.19901253 -0.14008301 -0.019941274 0.15644984
0.012225278 -0.04838258 0.08174896 -0.05676788 -0.09928325 0.16338494 -0.06297713 -0.009200159
-0.16659884 0.15459807 0.17396617 0.039880637 -0.1715798 -0.21605985 -0.14249615 0.15731323
0.11302837 0.18503368 0.124657735 0.07546132 -0.016956769 -0.14821306 -0.14624724 -0.16138597
0.097582705 -0.06907211 -0.014952211 -0.08644308 -0.007876195 -0.11595433 -0.10272023 0.08543565
-0.049235098 0.13514857 -0.041929092 -0.13782425 -0.007472921 -0.071981356 -0.06664402 -0.17500782
0.12783287 -0.1432478 0.099419095 0.10545607 0.12965 -0.13609155 0.1586907 -0.09307717
0.08542497 0.20138226 -0.034009695 0.0057585947 -0.025587784 -0.16754209 0.11123895 -0.17016205
0.14932905 0.17688495 0.21513188 -0.016367238 -0.12660162 0.07706311 0.13648573 -0.15841013
-0.008362888 -0.11527437 -0.022489792 -0.1023495 -0.07880909 -0.06988805 -0.18872756 0.16764228
0.1655127 -0.02641446 -0.0032204841 -0.059157457 -0.1555577 -0.17150512 0.08516256 -0.09041568
-0.10236809 0.0064599924 -0.039324816 -0.054070912 0.0153502375 -0.02721128 -0.054896437 -0.07765955
-0.1431471 0.17346379 -0.06398073 0.057800364 -0.05140549 0.03457404 0.20152813 0.10717729

conv1.bias f4 [16]
00000000: d68d 513e 881c 5f3e a1c4 bd3d ac7a a83d
00000010: 1573 7d3d 1755 2a3d 1591 5d3c fa94 553c
00000020: 473c dd3d 6b18 383e a939 22bd c938 4abd
00000030: 1a42 6cbc 615b 56bd 72a9 4d3d c11a 1f3e
0.20464262 0.21788228 0.092660196 0.08226523 0.06187733 0.041585054 0.01352336 0.013036007
0.108025126 0.17978065 -0.03960577 -0.04937056 -0.014420057 -0.05233324 0.050210424 0.1553755

conv2.weight f4 [32, 16, 3, 3]
00000000: 96f8 d53d d92e 9f3d ade7 b6bc d134 94bc
00000010: 5d23 893c 75bc cb3c b718 083d 919b 41bd
00000020: 6fee 643d 108d cbbc a751 16bc 496e 0dbd
00000030: adb7 d53d 5e62 15bd 5e05 bc3d 2d73 153d
00000040: 2686 e43c 824b b23d e454 e73c f96a c53d
00000050: 544a d83d 9c69 2bbd 35d6 883d 4c78 3e3d
00000060: 6ef5 623d 7d0a 3f3d 5e92 873d 3063 46bd
00000070: 8b14 5a3c 3f5b eb3d d7ae a53d 0898 b43c
00000080: 0a66 27bd 0cab 5c3c f009 11bd 41f2 d33d
00000090: d5c5 eabc d617 fb3b 7614 923c 8b91 263d
000000a0: 7971 d83d 337f 423d 530d 923d c741 bf3d
000000b0: c8b7 ca3d 64dc d33b 4ecf bd3c 5f56 a23d
000000c0: fc90 e63b 9d3f 913d 29c4 a63c b5b6 e5bc
000000d0: 6e9f 893d 8f94 493d 5353 a33d ee17 f63d
000000e0: 0e33 8f3d 117f cf3d 6239 023c 5011 6ebd
000000f0: 1b03 6ebd b6cf c3bc 4978 6dbd 30e6 66bc
00000100: 9071 23bd 8adb 46bd 7822 ecbc 5025 86bd
00000110: 6e0b bbbc 2015 2f3d 3bd7 c43d 6421 4b3c
00000120: 11ad 653c ca8b af3d 94f2 e23a e588 efbb
00000130: b89f bf3d 295a f2bc b779 2a3d d6a5 e63d
00000140: fbc2 633d 4d53 f63c e9bc 31bd 49f1 ae3b
00000150: 8408 cc3b 15c0 963c fee3 f23c 5756 7a3d
00000160: 7e1a 9ebd d700 6fbb 35fd 9abd f3cc a7bd
00000170: e9bd 06bd 2616 d4bd 3904 e63c ad27 80bc
00000180: 5265 5bbd 619c 333c f438 c9bd a2d4 dabb
00000190: d980 c6bc c8ea bfbd ba72 d8bc 3e08 e0ba
000001a0: 48a1 953d f797 b13d 8b20 b43d 992c 76bc
000001b0: 0ea5 c5bc 2ea2 cc3d 9e0b 6e3d 085e 333d
000001c0: 0ae3 583d 2a96 ccbc 0fa5 563c 22d5 f73d
000001d0: aa5c 953c 4c1b 093d cb3a 1abd 51a0 aabc
000001e0: 8340 5c3c 2623 65bd 0490 b63c 58fa 693d
000001f0: 148d 28bd 5ca2 853d a426 83bd 2830 1dbd
00000200: 826a 753d ef75 b83d e1c8 30bc 3525 85bc
00000210: 0fef 98bd e7df 53bd 5a19 53bd 986f 39bc
00000220: 308b 253d 2df5 54bd e05a cd3d 1299 9f3d
00000230: 112c 84bd 0794 70bc 1d00 463d 68bd 023c
00000240: 3be4 b83c ca14 f7bb 7f15 b93d bebe 40bc
00000250: e4da d93d 236a 173d bdaa 4d3d 416e ca3d
00000260: f412 613c 6394 65bc 944e 7c3c bf43 7f3d
00000270: a1e7 eabc 8611 3b3d 48d1 c7bd bbd3 9b3d
00000280: d750 893d f31b 2b3b 3d36 8f3d 73e9 f93c
00000290: ae40 7f3d e6cf e1bc af35 8f3c e3d2 873d
000002a0: 90bc f53d f22c 9a3d ea6b c0bc 8ab2 b63d
000002b0: 99de bc3b 6841 073b 48fd 7fbd e279 283c
000002c0: f5ed b23d 7f03 173d f402 b1bc 5d38 613d
000002d0: 2f10 94bb d2d0 d23d 36d5 40bd ba9a d3ba
000002e0: 729c 56bd 485e cabb 6b8f 523d 6bc4 e63d
000002f0: 5e06 253d 1e37 e83d c218 5c3d b27f 973d
00000300: 54b2 c43d bf9b d73d 749f 4cbc 44af e03d
00000310: cc19 aa3d 6925 83bb ebb3 15bc 7882 6bbd
00000320: 4bcc b13c 97df ebbc ef54 703d 5fdc 513d
00000330: dfaf 49bd 0630 f93b b02c aebc c9f9 643d
00000340: 9c7f 793d 9351 9dbd 1faa bd3d e246 c53d
00000350: 9db9 6a3d 39e5 6dbd 0e1c cbbb c58b fe3b
00000360: f910 803c 4b65 9a3d c939 613d 7120 d23d
00000370: 4a6d 883b 74fb 4d3d d620 863d 6bda 05bd
00000380: 221b 50bd 65f8 4dbd b2eb 543d 77fe a0bd
00000390: 0c32 a8bd 3666 2e3d e220 3c3d 4e16 863d
000003a0: e4c6 84bd 4b09 66bd 108b 1d3d 8e4e 3f3d
000003b0: 0adf c73c 5293 343b 5e7f 28bb 03c8 853d
000003c0: cb7d 94bd b025 7cbd 479d 043d 8a6d 9ebd
000003d0: d51a 65bd ecdb b43d 2402 3a3c 4c5d 963c
000003e0: 4534 4f39 ec76 8f3b 61c2 7e3d feb7 57bd
000003f0: cc7a f93c 1b24 993d bef0 0ebd cadd e13d
0.10447805 0.07772607 -0.022327268 -0.018091591 0.016740495 0.024870137 0.033226695 -0.0472675
0.05589145 -0.024847537 -0.009174741 -0.034529004 0.10435424 -0.036470763 0.09180711 0.036486793
0.027895998 0.08705808 0.028238721 0.09639544 0.10561052 -0.041848764 0.06681482 0.046501443
0.05540984 0.04664086 0.06619714 -0.048434436 0.013310562 0.11492013 0.08089989 0.02204515
-0.040868796 0.013468515 -0.035409868 0.10348941 -0.028658787 0.0076627536 0.017832022 0.040666144
0.10568518 0.047484588 0.07131448 0.09338718 0.09898335 0.0064654816 0.02317014 0.0792663
0.0070363265 0.070922114 0.020357208 -0.028041223 0.06719862 0.049213942 0.07974877 0.12016283
0.0699216 0.10131658 0.007948251 -0.05812198 -0.05810843 -0.023902755 -0.05797604 -0.014092967
-0.039903224 -0.048549213 -0.02882503 -0.065500855 -0.022832599 0.042744756 0.096113645 0.012398098
0.014018313 0.085715845 0.0017314726 -0.0073100203 0.09356636 -0.029584007 0.041619983 0.112620994
0.05560587 0.030069018 -0.04339305 0.005338822 0.006226601 0.018402139 0.02964973 0.061117496
-0.07719897 -0.0036469006 -0.07567827 -0.08193388 -0.032895956 -0.10355787 0.028078185 -0.015643919
-0.053563423 0.010962577 -0.09825316 -0.00667818 -0.024231361 -0.09370953 -0.026421893 -0.00170923
0.073061526 0.08671563 0.087952696 -0.015025281 -0.024126556 0.09991871 0.058116548 0.043790847
0.052950896 -0.024973948 0.0131008765 0.12101199 0.018232662 0.033473298 -0.037653726 -0.020828398
0.013443115 -0.055941723 0.022285469 0.057123512 -0.041150168 0.06525108 -0.064038545 -0.038376004
0.059916027 0.09006869 -0.010790081 -0.016253093 -0.07467472 -0.0517272 -0.05153785 -0.01131811
0.040415943 -0.05199163 0.10027099 0.07792868 -0.064537175 -0.01468373 0.04833995 0.007979728
0.022569766 -0.00754032 0.09037303 -0.0117642265 0.10637453 0.036966454 0.050211657 0.098843105
0.013737429 -0.014012429 0.015399594 0.062320467 -0.028674902 0.04567101 -0.09756714 0.07608744
0.06704872 0.0026109188 0.06992767 0.030506825 0.062317543 -0.027564954 0.017481653 0.0663202
0.11998856 0.07528104 -0.023488957 0.089207724 0.0057638404 0.002063835 -0.062497407 0.010282965
0.08736793 0.03686857 -0.021607853 0.054985393 -0.004518531 0.102937356 -0.047078334 -0.0016144135
-0.05239529 -0.00617579 0.051406305 0.112679325 0.040289275 0.11338638 0.05373455 0.07397403
0.09604326 0.10527753 -0.012489188 0.10970929 0.083057016 -0.0040022624 -0.009137134 -0.05749747
0.02170386 -0.02879314 0.05867475 0.051235553 -0.04923999 0.007604602 -0.021261543 0.055902276
0.060912713 -0.07681575 0.09260964 0.096326604 0.05730592 -0.058079932 -0.0061984127 0.0077681267
0.015633093 0.07538851 0.05498675 0.10260094 0.004163419 0.050288633 0.06549232 -0.032679003
-0.050807126 -0.050285716 0.05198259 -0.07861035 -0.08212671 0.042577945 0.045929797 0.06547223
-0.06483248 -0.056161206 0.0384627 0.046705775 0.024398346 0.002755363 -0.0025710682 0.0653229
-0.072505556 -0.06155938 0.032376554 -0.07735737 -0.055933792 0.08831009 0.011353049 0.018355034
0.0001976053 0.0043781903 0.062197093 -0.052665703 0.030454062 0.0747759 -0.03489756 0.11028631

conv2.bias f4 [32]
00000000: fea1 8a3d 7eaf 19bb 97da 723d 949a c93c
00000010: b14d 0f3d 6c72 b83d bbd3 59bd 1c2d 9a3c
00000020: 6018 a5bc daf1 9ebd 4504 94bd 747a 5e3b
00000030: adb2 bd3d b591 24bd a175 b03c 8bc2 893d
00000040: 6489 55bd 056e 283d e4e8 bc3c 8360 9bbd
00000050: 6544 783c 4e3e 66bd 3c34 ac3d 6baa 253d
00000060: 79c4 423d 81a2 a33d 2e5a 9a3d 5e38 d93d
00000070: d952 e53c 9c46 88bd f620 bc3d e8cd 383c
0.06769179 -0.0023450549 0.059290495 0.024609841 0.0349862 0.09006199 -0.053180438 0.018820338
-0.020153224 -0.07760973 -0.07227377 0.00339475 0.09262595 -0.04017802 0.021540465 0.06726559
-0.05213298 0.041120548 0.02306027 -0.075867675 0.015153025 -0.056211762 0.084084004 0.040445726
0.047550652 0.079899795 0.07536732 0.10606454 0.027993606 -0.06654093 0.09185974 0.011279561

conv3.weight f4 [64, 32, 3, 3]
00000000: c858 123b 7590 553c 3215 b93d e6d6 0c3d
00000010: ae22 963d ec03 213d cacb ab3d f77d adbb
00000020: 5e11 593d f31e 1c3d ac3a a23c 6645 bb3d
00000030: a5c0 1d3d c89b e03c a59c 833d 0044 c43c
00000040: 64df ef3c 5a9f d9bc 03bd bcbc 1a40 6dbd
00000050: 3193 f63b 2534 ec3c e20a a0bd 7667 7abd
00000060: e559 e43c fd0f 72bd 515a c63c 1659 023d
00000070: 5e17 f3bc b271 6ebd 74ff a03c 8a67 4a3d
00000080: bac0 863d ceaf d13a 47c3 4b3d c4ea 0cbd
00000090: ff91 0c3d 3281 393d 7406 993d b3d7 863b
000000a0: 4292 eb3c 268f 8ebb ec96 57bb 1762 783d
000000b0: 5cda 333d 5891 9b3c a940 babc 671a 643a
000000c0: 228b f6ba 8df6 9d3c b99a 34bd 6497 383c
000000d0: 4201 6a3d d177 683d f71a 11bc 505a 4a3d
000000e0: 29d4 6fbd 5c49 483d 433e a83d 6640 eebc
000000f0: 16f9 1b3d 5fa7 1abd b124 103c e46a e03b
00000100: e59e 7bbc 3064 c63c bea2 9a3d 6420 e13c
00000110: 7b01 c13d 7a0a 5fbc d397 703d b10e b43d
00000120: da82 b73d 0930 ee3b 1d53 65bc 3942 c73b
00000130: 6d9a 9c3d b56a 3f3d 67e8 ba3d 05c4 8abb
00000140: a661 dbba 1795 8d3d 8e79 753d 5747 be39
00000150: 9100 bd3d b34c 293c 8447 3bbc 3c4e 383d
00000160: 7c9b 95bb 298b 1b3b 2092 6ebd 22ec 21bc
00000170: e86a f43a a23a 213d 15a8 20bd c44f 6dbc
00000180: e6c9 6e3c 2bed 1ebd 0443 fbbb 6cf0 ab3c
00000190: 6879 59bc 6227 44bb cd9d b23d ab28 473d
000001a0: 8608 463d 16d7 803d e651 983d 1bc2 a33d
000001b0: 142d 9b3b 1c51 44bc 34e0 0a3c 09af 2f3b
000001c0: 0b80 31bd 3389 1ebd 5815 7ebd 1781 99bd
000001d0: bb91 e13c 418f a7bc 07a8 2fbc 2291 c2bc
000001e0: 61b7 82bb 7fbc 693d 566a 8c3d efc6 02bc
000001f0: 66f6 1c3d b2d6 51bb f5e1 383d 0c98 983d
00000200: 7b1f 793c ab69 093c 34b7 a43d 3e19 80bb
00000210: 0c24 de3c 4b6e 1ebc aa6f aa3d 7095 e23c
00000220: f035 3abd 6e95 653d 66bf aa3d 25ee 1c3d
00000230: e722 adbc 9ab7 a63c 64c8 a23d 6305 903d
00000240: a218 8b3c 646c a03d d12d 393b c637 613d
00000250: aaac ac3d c18a 2b3d 31d4 a0bc 588d 573d
00000260: 62f4 7c3d 99f4 8a3d 927d 02bd ab7b b13c
00000270: aa6a 9a3c 92c2 803c 92b4 aa3c 7ece 04bb
00000280: 97d4 5d3d 3f9e 803d f2b0 a53c 8e0a a93d
00000290: 0166 193d 2321 123d 9138 563d 44f5 6e3c
000002a0: 420a 1a3d 3a8b dd3c b0aa 813d 5bab 01bd
000002b0: b696 ddbc 19f9 68bd eafd d1bc 3add 993c
000002c0: 1516 433d 81f2 6dbd 68a8 adbc 95d9 173d
000002d0: d285 03bc 397a 853d 47a9 253d 0767 f8bc
000002e0: c03a e83c 2d78 59bc c546 ec3c 91f5 92bc
000002f0: 5532 b03d e0ad 463a 206c 893d a34e 85bc
00000300: f6ea 72bc f742 f93c 2d38 913d ee88 103d
00000310: 5c4d 13bd 01ee dd3c 3f0d 9ebc 6b58 543d
00000320: ee3e 293d b5a1 683d 6412 b13d 534c 093b
00000330: b9ca 9e3d ef15 8d3d f319 233d 4c8f 99bc
00000340: 2df6 eebb 8caa 833d 7ce4 a43d 1c16 513d
00000350: afa3 363d e861 98bb 49b0 05bd 8df6 3a3b
00000360: 8387 f83c fe3c 2b3d a2ce 8c3d c657 3dbc
00000370: f3a3 843d 5e9b 9e3d 444a b5bc be04 773b
00000380: c7dd 463c 4f21 3ebc 71ae fa3c 1f11 7ebc
00000390: aab0 4a3c 1e80 b73c 9735 923c 7132 a9bd
000003a0: b169 8ebd 9282 f4bc 7910 083d c1fb 153d
000003b0: e8b9 b53d d12c b13d d7de b13c 4c8d 3c3c
000003c0: d9bf 153d f16c 373d 7dca 903d 253a 573d
000003d0: 2ae1 6e3d 947d 043d 0996 743d 63df 3b3d
000003e0: 0b25 ac3b 8b26 2ebc 9fe0 8b3d e41f e4b9
000003f0: f7bb 09bc 5031 ed3c 0ae1 a63d ff67 05bb
0.002233075 0.0130349295 0.09037246 0.03438463 0.073308334 0.03931038 0.08388479 -0.005294557
0.05299508 0.038115453 0.019803368 0.09144096 0.0385138 0.027418032 0.06426362 0.023958206
0.029281326 -0.026565243 -0.023039347 -0.05792246 0.007524871 0.028833458 -0.07814576 -0.061133824
0.027874896 -0.05909728 0.024212988 0.03182324 -0.029674228 -0.058213897 0.01965306 0.04941515
0.065797284 0.0015997828 0.049746778 -0.034403577 0.03431892 0.045289226 0.07471934 0.004115069
0.028756265 -0.0043505607 -0.0032896353 0.06064042 0.043909416 0.018990204 -0.02273591 0.0008701444
-0.0018809775 0.019282604 -0.044092868 0.011266563 0.057130106 0.05675489 -0.008856527 0.049402535
-0.05855194 0.048898086 0.082150005 -0.029083442 0.038079344 -0.037757274 0.00879781 0.00684868
-0.015357708 0.024217695 0.07550572 0.027481265 0.094241105 -0.013613338 0.05873854 0.08791865
0.08960505 0.00726891 -0.0139968665 0.0060808924 0.07646642 0.046732623 0.091263585 -0.004234793
-0.0016737476 0.06913202 0.059930377 0.00036292776 0.09228624 0.010333228 -0.011430625 0.044996485
-0.0045656543 0.002373407 -0.058244824 -0.009882959 0.0018647583 0.039362557 -0.039222796 -0.01448435
0.0145745035 -0.0388004 -0.007667901 0.020988666 -0.013273574 -0.00299307 0.08721504 0.04862277
0.048347972 0.062910244 0.07437496 0.07996007 0.0047355983 -0.011982229 0.008476306 0.002680721
-0.043335002 -0.038705062 -0.062032074 -0.07495325 0.02753531 -0.020454051 -0.010721213 -0.023750845
-0.0039891456 0.05706453 0.068562195 -0.007982 0.03832092 -0.0032018838 0.045137364 0.07450876
0.015205259 0.00838701 0.08042756 -0.003909259 0.027116798 -0.009669851 0.083220795 0.027659148
-0.045461595 0.05605071 0.083372876 0.03831305 -0.021134807 0.02035122 0.07948378 0.070322774
0.01697952 0.07833174 0.0028256068 0.05498483 0.084313706 0.041880373 -0.01963243 0.05262503
0.0617565 0.067849346 -0.031858034 0.021665415 0.01884969 0.015717778 0.020838056 -0.002026468
0.05415782 0.06280183 0.020225976 0.08253966 0.037450794 0.035676133 0.05230004 0.014584843
0.03760744 0.027043927 0.06331384 -0.031657558 -0.027049404 -0.056878183 -0.025633771 0.018782247
0.04762848 -0.058092598 -0.021198466 0.037072737 -0.008027511 0.06517453 0.04044464 -0.030322565
0.028348327 -0.013273281 0.02884234 -0.01793936 0.0860335 0.000757901 0.06710076 -0.016272848
-0.014826527 0.03042744 0.07090793 0.035286836 -0.035962448 0.027091028 -0.019293426 0.051842134
0.04131978 0.05679484 0.08646086 0.0020950034 0.0775351 0.06888949 0.03981967 -0.018745087
-0.00729253 0.064290136 0.080513924 0.051046476 0.044589695 -0.004650343 -0.03263882 0.0028528303
0.030338055 0.041806214 0.068753496 -0.011556571 0.06476583 0.07744478 -0.02213014 0.0037692036
0.012137837 -0.011604621 0.030600758 -0.015507012 0.012371222 0.022399958 0.01784782 -0.08261574
-0.06953753 -0.029847417 0.033218835 0.036617044 0.088733494 0.08651126 0.021712704 0.011508297
0.036559913 0.04478163 0.070698716 0.052545685 0.058320202 0.032346323 0.059713397 0.045867335
0.0052534393 -0.010629307 0.068299524 -0.0004351131 -0.008406631 0.028954178 0.081483915 -0.0020356176

conv3.bias f4 [64]
00000000: f0c1 87bd dd74 cabc dff0 12bd a319 41bd
00000010: 7ec8 303c 984a 153d acaf 79bc c5bf 0b3c
00000020: b9b4 1d3d fda9 303c 6705 383d 3466 a7bc
00000030: 38fe 99bc 8c10 65bd 37af 2abd 785a aebc
00000040: f96c 1c3c 0d05 9cbc cf8e 45bd 82e9 dfbc
00000050: 2823 873d b580 fbbc 260a 22bd 1967 4d3d
00000060: bdd4 c3bc 3f39 86bc e36e 47bd e3c0 0bbd
00000070: 6f40 cc3c a9bc 2b3d a19e 11bd 8e9c d4bc
00000080: 5867 283d f46d 9f3d 089e 343c d7b8 8bbd
00000090: 1a30 853d c5ab 72bd 8b6d 1cbc 8163 febc
000000a0: 6614 d43c a659 623d c8e1 a63d 6d31 ba3c
000000b0: 6ea6 47bd 45e1 833d fc64 8d3d 4628 403c
000000c0: aaef 2a3d b77f 55bd 3606 85bc a563 963d
000000d0: dbfd 033d 633d 3ebd f9b3 6f3d 0df8 173d
000000e0: f075 7e3d 69fc a63c b27f 1e3d ecda 823d
000000f0: b466 403d c036 80bd 1a0f 96bc b1e9 523d
-0.066287875 -0.024713928 -0.035874244 -0.04714359 0.010789989 0.03644809 -0.015239637 0.008529608
0.03850243 0.010782716 0.044927027 -0.020434476 -0.018797979 -0.055923983 -0.041671004 -0.021283373
0.0095474655 -0.019045377 -0.048231896 -0.027333025 0.065985024 -0.03070102 -0.03956046 0.05014715
-0.023905152 -0.016384719 -0.048689734 -0.034119498 0.024933068 0.041927967 -0.03555167 -0.025953557
0.04111418 0.07784644 0.011024006 -0.06822365 0.06503315 -0.059245843 -0.009547601 -0.031053307
0.025888633 0.055261277 0.08148533 0.022728646 -0.048742704 0.06439451 0.06904027 0.011728352
0.041732468 -0.05212375 -0.016238313 0.073432244 0.032224517 -0.04644526 0.058521245 0.037101794
0.062124193 0.02038403 0.038696 0.06389412 0.046972945 -0.06260443 -0.018317748 0.051492397

fc1.weight f4 [2, 4096]
00000000: 8eb3 19bd 46e6 21bd b75a 0bbd bb93 25bd
00000010: 8548 7fba 2a08 b7ba 9e78 16bd 89c5 26bd
00000020: 1447 10bc 4ae2 d0bc f14a c5bc ddaa 0a3c
00000030: 569f 3d3d 1ee0 3f3c 0ac4 8d3c 758e cbbc
00000040: 4abf 80bc 10f0 98bc 6244 ff3c 1ba6 1a3d
00000050: 897e f73c c006 163d 08b2 1a3b 15e5 d7bc
00000060: 2b74 0bbd 1504 8abc 03dd b83c b37e 1a3d
00000070: 99f1 1e3d 4bd3 a73c 994e 103c e8ad 54bc
00000080: a48d 3cbc 8481 cbbc 47f7 b23c df8b 4f3d
00000090: 4371 543d 4c42 c63c 8e16 16bd 6a95 14bd
000000a0: da0f a0bb 8485 103d c0ed 243d ed2b db3c
000000b0: 0a26 9d3c df44 753b 055e cbbc 2269 4abc
000000c0: 4893 9f3c 24f2 133d 0f00 df3c 290c e03c
000000d0: 759d 713b 4afd 58b9 6805 d6bb 2b00 85bc
000000e0: 764e af3b ac0d b83c 788a 8e3c 547a fd3c
000000f0: 0fab 853b d8b0 78bc 3d22 033c 19f3 fcbc
00000100: 2312 04bd 9aa5 21bd 3b6b b3bc c193 5dbd
00000110: 50ce e1bc b552 0bbd 80ea bbbc d012 1abd
00000120: fda6 06bc 849a dfbc c208 a6bc c129 033d
00000130: 849b 1f3d aa8d 2b3d c525 0cbb 80dc a3bc
00000140: a6af 31bc 0c76 d03c e112 cf3c 8032 9e3c
00000150: f015 dd3c cd82 393d e30e b03b 6169 7b3c
00000160: 2bcf 39bd 9389 0dbd decf da3c d1b3 ae3c
00000170: 18e3 493d a4f0 f63c 34e3 a13b 81be e9bc
00000180: fff7 71bb bf5f 9abc c523 ec3c d97e ed3c
00000190: ed17 343d 79fd ea3c 8943 1f3c 59ca 98bc
000001a0: cd57 d73c b949 0d3d 22ed 3a3d 7d77 133d
000001b0: 0103 0a3d 52ab 233d 3020 9fb9 cc18 ffbb
000001c0: bd28 263c bbb8 453d df13 e93c 04d4 013d
000001d0: 77de b03c f902 6f3c f294 89bb 0bca b7bb
000001e0: 4d1b 1d3c be2c 693c 6a70 c33c 8dc9 a73c
000001f0: eb72 6a3b 5f15 4abc 7ce3 b0bb 3765 b1bc
00000200: f4e3 3c3c 0082 e239 a022 f2ba 80fd 8bbb
00000210: 0017 1ebb d0ea f0ba f481 f9bb 80e1 36bc
00000220: b020 afba d2d8 7d3c 420e 413c 40bb 463a
00000230: 50bd dd3b b832 613b 6454 03bc 88d7 b83b
00000240: fcea e93b 80b6 87ba 6ca6 183c 20ba cb3b
00000250: c0b3 f2bb 5032 953b ecb2 e93b 183d 4a3c
00000260: fc7e 2ebc 7a14 6cbc f497 c8bb a0de ac3a
00000270: 4af4 49bc d017 7dbb ce43 3bbc 6cc4 41bc
00000280: 5c68 9b3b a8ff f93b 48f8 093b c895 313c
00000290: a067 75bb e073 043b 56cd 3c3c d20d 543c
000002a0: 9894 923b dc90 5abc 90ad 773b 247a 383c
000002b0: 2c69 ae3b 9a25 7cbc ac54 a7bb a428 03bc
000002c0: 3868 66bc 12fd 54bc 3a79 253c a601 24bc
000002d0: 6a4e 1abc 90d0 debb c0d6 d9ba 9430 183c
000002e0: 0a35 7cbc 70f4 e4bb 88f6 26bb f410 8e3b
000002f0: 8e0b 0ebc bc33 8bbb 2aa7 09bc d382 f63a
00000300: 56c8 b1bc c1c0 13bd 86d1 dbbc 3d76 1fbd
00000310: b561 713b de8c ebbc 0f52 cfbc dfad 34bd
00000320: 8574 413c 4ba9 79bc d0a7 45bc 0616 a73c
00000330: f438 c23c 2466 de3c 5f6a a93c 1f2a 8dbc
00000340: ef1b d13b 3ccc 34bb 6e98 ed3c 5075 f13c
00000350: ec7f c93c 8327 493d f5f9 483c 7eca a9ba
00000360: 35bd e7bc de37 afbc 1fc1 973c 174a 183d
00000370: 2329 273d 5f01 073d 77f4 2f3c 7db9 a9bc
00000380: 2f46 ad3b addd 00bd d013 383d caa1 ac3c
00000390: d970 063d a439 be3c 1378 95bb e039 e5bc
000003a0: d614 7c3c 5f0f 0e3c 1920 273d d81a 883c
000003b0: 0e96 4b3d edb2 333d 87f2 403b a6ed aebc
000003c0: 1284 f6b9 4190 8b3c 2922 b63c 8da4 823c
000003d0: b317 48bc b3bd 0d3d 9e45 d2bc 8dbc 76bc
000003e0: c88b 0a3c 22fa ae3c 50bc 0f3d 8c28 183d
000003f0: 60a9 d33c 52b9 5ebc 520c 413d a6ba f7bb
-0.037524752 -0.039526246 -0.03402206 -0.04042409 -0.0009738284 -0.0013964225 -0.036736123 -0.040715728
-0.008806009 -0.025498528 -0.024083586 0.008463589 0.046294533 0.011711149 0.017305393 -0.024848202
-0.015716214 -0.018669158 0.031160537 0.037756067 0.030211704 0.03662753 0.002360465 -0.026354352
-0.034046333 -0.01684765 0.022566324 0.037718486 0.038804624 0.020486495 0.008807802 -0.012980916
-0.011508379 -0.024842031 0.021846427 0.0506705 0.051865827 0.024201535 -0.036642604 -0.036275305
-0.004884702 0.03528358 0.0402658 0.026754344 0.019183178 0.0037425084 -0.024825105 -0.012354167
0.019479409 0.036119595 0.027221708 0.027349548 0.0036867533 -0.00020693723 -0.006531406 -0.016235432
0.0053499294 0.022467457 0.017400011 0.03094212 0.0040792297 -0.015178882 0.0080037685 -0.030877637
-0.03224386 -0.03946457 -0.021901717 -0.054095987 -0.027564198 -0.034014422 -0.022938967 -0.037615597
-0.008218524 -0.027295358 -0.020267848 0.03202224 0.03896667 0.04188315 -0.0021384817 -0.020002604
-0.0108451005 0.025446914 0.025277557 0.01931119 0.026988 0.045290757 0.0053728684 0.0153449485
-0.045363586 -0.03455503 0.026710447 0.021325978 0.04928884 0.030144043 0.004940415 -0.028533222
-0.0036921499 -0.018844483 0.02882565 0.02899115 0.04396813 0.028685318 0.0097206915 -0.018651174
0.026286984 0.034494136 0.045636304 0.036002625 0.03369427 0.039958306 -0.00030350825 -0.0077849384
0.010141549 0.048271876 0.028451858 0.031696334 0.021590455 0.014588111 -0.004198664 -0.005608802
0.009589029 0.014231859 0.023857314 0.02048185 0.0035774063 -0.012334197 -0.005398212 -0.021654708
0.011528958 0.00043202937 -0.0018473454 -0.004272163 -0.0024122596 -0.0018380526 -0.0076143686 -0.011162162
-0.0013361182 0.0154935885 0.0117831845 0.0007581003 0.0067669526 0.0034362506 -0.008015726 0.0056409277
0.007138608 -0.0010354072 0.009317022 0.006217256 -0.007406682 0.004553117 0.007131925 0.012343667
-0.010650393 -0.014409179 -0.00612163 0.0013188906 -0.012326309 -0.003861893 -0.01142974 -0.011826616
0.004742665 0.0076293536 0.0021052528 0.010838933 -0.0037445799 0.0020210668 0.011523565 0.012942748
0.00447328 -0.013340201 0.003779266 0.011259589 0.005322596 -0.015389824 -0.005106529 -0.008005295
-0.014062934 -0.01299979 0.010099703 -0.010010159 -0.009418109 -0.006799765 -0.0016619787 0.009288926
-0.015393505 -0.006987147 -0.0025476534 0.004335517 -0.008669747 -0.0042481106 -0.008401671 0.0018807299
-0.021701973 -0.036072496 -0.026833307 -0.03893112 0.003683192 -0.028753694 -0.025307683 -0.04411113
0.011807566 -0.0152381165 -0.012063935 0.020396244 0.023708798 0.027148314 0.020680605 -0.017231999
0.006381504 -0.0027587553 0.029003348 0.029474884 0.02459713 0.049109947 0.012266626 -0.0012954024
-0.028288463 -0.021388944 0.018524705 0.037180033 0.040810715 0.032960292 0.010739437 -0.02071833
0.0052879076 -0.031461406 0.04494077 0.02107324 0.032822464 0.023220845 -0.004561433 -0.027981699
0.015385827 0.008670657 0.040802095 0.016614363 0.04970365 0.04387181 0.0029441433 -0.021353554
-0.00047019176 0.017036559 0.022233086 0.015947605 -0.012212682 0.03460474 -0.025667962 -0.015059602
0.008456178 0.021359507 0.0350917 0.037148044 0.0258376 -0.0135939885 0.04713089 -0.007560092

fc1.bias f4 [2]
00000000: 80fd b7bc 41be be3c
-0.022459745 0.02328408
